…
Namespace(anneal_iter=40000, anneal_rate=0.9, batch_size=32, beta=0.13, clip_norm=50.0, data='../data/zinc310k/frac0.5/', depthG=3, depthT=20, epoch=20, hidden_size=450, infomax_factor_false=100, infomax_factor_true=200, kl_anneal_iter=1000, latent_size=56, load_epoch=170000, lr=0.001, max_beta=1.0, print_iter=50, prop_hidden_size=3, save_dir='vae_model8/', save_iter=5000, step_beta=0.001, train='zinc310k-processed/frac0.5/', u_kld_y_factor=1.0, warmup=40000, ymse_factor=1)
batch_size_L  16
batch_size_U  16
mu_prior  tensor([-0.0014, -0.0059,  0.0001], device='cuda:0')
cov_prior  tensor([[ 1.0023,  0.4335, -0.5482],
        [ 0.4335,  0.9995, -0.2985],
        [-0.5482, -0.2985,  1.0027]], device='cuda:0')
CondJTNNVAE(
  (predi): JTNNPredi(
    (embedding): Embedding(907, 450)
    (outputNN): Sequential(
      (0): Linear(in_features=900, out_features=450, bias=True)
      (1): ReLU()
    )
    (GRU): GraphGRU(
      (W_z): Linear(in_features=900, out_features=450, bias=True)
      (W_r): Linear(in_features=450, out_features=450, bias=False)
      (U_r): Linear(in_features=450, out_features=450, bias=True)
      (W_h): Linear(in_features=900, out_features=450, bias=True)
    )
    (prop_predi_mu): Linear(in_features=450, out_features=3, bias=True)
    (prop_predi_lsgms): Linear(in_features=450, out_features=3, bias=True)
  )
  (jtnn): JTNNEncoder(
    (embedding): Embedding(907, 450)
    (outputNN): Sequential(
      (0): Linear(in_features=900, out_features=450, bias=True)
      (1): ReLU()
    )
    (GRU): GraphGRU(
      (W_z): Linear(in_features=900, out_features=450, bias=True)
      (W_r): Linear(in_features=450, out_features=450, bias=False)
      (U_r): Linear(in_features=450, out_features=450, bias=True)
      (W_h): Linear(in_features=900, out_features=450, bias=True)
    )
  )
  (decoder): CondJTNNDecoder(
    (embedding): Embedding(907, 450)
    (W_z): Linear(in_features=900, out_features=450, bias=True)
    (U_r): Linear(in_features=450, out_features=450, bias=False)
    (W_r): Linear(in_features=450, out_features=450, bias=True)
    (W_h): Linear(in_features=900, out_features=450, bias=True)
    (W): Linear(in_features=481, out_features=450, bias=True)
    (U): Linear(in_features=481, out_features=450, bias=True)
    (U_i): Linear(in_features=900, out_features=450, bias=True)
    (W_o): Linear(in_features=450, out_features=907, bias=True)
    (U_o): Linear(in_features=450, out_features=1, bias=True)
    (pred_loss): CrossEntropyLoss()
    (stop_loss): BCEWithLogitsLoss()
  )
  (prop_dense): Linear(in_features=3, out_features=3, bias=True)
  (relu): ReLU()
  (tree_enc_dense): Linear(in_features=453, out_features=450, bias=True)
  (mol_enc_dense): Linear(in_features=453, out_features=450, bias=True)
  (jtmpn): JTMPN(
    (W_i): Linear(in_features=40, out_features=450, bias=False)
    (W_h): Linear(in_features=450, out_features=450, bias=False)
    (W_o): Linear(in_features=485, out_features=450, bias=True)
  )
  (mpn): MPN(
    (W_i): Linear(in_features=50, out_features=450, bias=False)
    (W_h): Linear(in_features=450, out_features=450, bias=False)
    (W_o): Linear(in_features=489, out_features=450, bias=True)
  )
  (A_assm): Linear(in_features=31, out_features=450, bias=False)
  (assm_loss): CrossEntropyLoss()
  (T_mean): Linear(in_features=450, out_features=28, bias=True)
  (T_var): Linear(in_features=450, out_features=28, bias=True)
  (G_mean): Linear(in_features=450, out_features=28, bias=True)
  (G_var): Linear(in_features=450, out_features=28, bias=True)
  (infomax_loss): BCEWithLogitsLoss()
  (discriminator): Linear(in_features=31, out_features=1, bias=True)
)
Model #Params: 8293K
prop  ['prop-tensors-1.pkl', 'prop-tensors-6.pkl', 'prop-tensors-8.pkl', 'prop-tensors-9.pkl', 'prop-tensors-7.pkl', 'prop-tensors-0.pkl', 'prop-tensors-3.pkl', 'prop-tensors-4.pkl', 'prop-tensors-5.pkl', 'prop-tensors-2.pkl']
u  ['u-tensors-0.pkl', 'u-tensors-7.pkl', 'u-tensors-9.pkl', 'u-tensors-8.pkl', 'u-tensors-6.pkl', 'u-tensors-1.pkl', 'u-tensors-2.pkl', 'u-tensors-5.pkl', 'u-tensors-4.pkl', 'u-tensors-3.pkl']
…
